MainSchool/Lecture2/model_jet.pt (torch, 20934 bytes, 24 tensors)

sequential.0.Gamma.weight f4 [25, 23]
000000 e7 42 4c 3b c1 86 01 3d 42 d0 8f bd d2 36 17 3e
       0.0031167807 0.031622652 -0.07022144 0.14767006
000010 f1 9e 37 be 20 c2 1b 3e 1a f9 8d 3d 03 6b da bd
       -0.17931725 0.15210772 0.06932278 -0.10664942
000020 7a 2e 1a 3e 2b 14 09 3c dd 90 d9 3d 47 57 1b be
       0.15056792 0.008366625 0.106233336 -0.15170012
000030 c2 eb 94 3d a4 38 2f 3e 25 38 da 3d a3 6e 3e 3e
       0.0727153 0.1711145 0.1065524 0.18596892
000040 b2 64 a1 3b b4 3d 07 bd 40 b2 32 be d3 fd 00 be
       0.004925334 -0.03301783 -0.1745081 -0.12596826
000050 95 51 27 be cc 14 29 3e 7a 48 cf 3d df 3a ce 3d
       -0.16339715 0.1651184 0.10121246 0.100698225
000060 14 45 82 3d 09 cb 4b 3e 44 4d 3f 3e 4a f0 2a 3e
       0.06360832 0.1990167 0.18681818 0.16693226
000070 b8 b5 bc bd f7 50 16 bd a5 4e 2a be 14 00 dc 3c
       -0.092143476 -0.036698308 -0.16631563 0.026855506
000080 94 ab bd bd 31 a3 4c b9 bd 39 54 3b ec 73 7c 3c
       -0.092612416 -0.0001951575 0.0032383048 0.015408497
000090 3a 2d d2 bd 3e 0c e6 bd 94 6b bf 3d 03 11 c7 be
       -0.102625325 -0.11232804 0.09346691 -0.38880166
0000a0 30 b6 0d be 8b 8b 1c be eb 6d 0e bd 52 61 c2 3d
       -0.1383903 -0.15287606 -0.034772795 0.094912186
0000b0 d6 5e 8b bd af b0 82 3d 63 5a 8a 3c b6 ee 34 3e
       -0.06805198 0.06381356 0.016888803 0.17669186
0000c0 26 e2 e4 3d 1e 56 91 3d 0f 86 40 bd 2f 9c 4f 3e
       0.11175947 0.07096504 -0.04700285 0.20274423
0000d0 6b fd e9 bd 9b 4c 17 be 15 62 21 3e d2 af 89 bd
       -0.11425289 -0.14775316 0.15760072 -0.06722988
0000e0 ce 4c d4 bc e9 66 1f 3d 72 4a 4d 3e 21 49 b6 3d
       -0.02591553 0.038916502 0.2004793 0.08900667
0000f0 c4 f8 88 bd dd e3 29 3e 6a 2c 2a be d4 6e b0 3d
       -0.06688073 0.16590829 -0.16618505 0.08614889
000100 4b de 13 be 49 8e c2 bd e4 c3 1a bd 61 d6 c2 bd
       -0.14440267 -0.09499795 -0.037784472 -0.09513546
000110 5b 08 0d be 31 5a 4c be 39 f4 84 3c e9 14 24 3e
       -0.13772719 -0.1995628 0.016229736 0.16023602
000120 23 81 1f be c5 66 a8 bd 73 ab 15 3e 06 c8 22 3d
       -0.15576605 -0.08222727 0.14616184 0.03974154
000130 d0 7d a1 bc 3e 66 07 3e 03 c6 a4 bc 78 0a e5 3d
       -0.019713312 0.13222596 -0.02011395 0.111836374
000140 82 30 ad 3d b8 9c 13 be 6c 9b 2d 3d 41 4c d6 bd
       0.08456518 -0.14415252 0.04238455 -0.10463763
000150 53 ad db bc be 8f df 3c 55 d8 84 bd 48 c2 32 be
       -0.026816046 0.027290221 -0.064865746 -0.17456925
000160 81 c4 2f be a0 71 c0 3d 2e 41 b1 bd 46 5a 51 be
       -0.17164804 0.09396672 -0.0865501 -0.20444593
000170 b3 78 65 3d 59 28 04 be 6d 8a 97 bd 0c 67 c6 3d
       0.05602331 -0.12906016 -0.073994495 0.096876234
000180 b3 84 67 bd cd d0 28 be 4e f8 51 3e e1 35 4e 3e
       -0.056523036 -0.16485901 0.20504877 0.2013774
000190 0c 00 83 3d 71 5b 18 3d 75 11 73 bd 61 77 31 3c
       0.06396493 0.03719658 -0.05934282 0.010831685
0001a0 2b e1 ed bd a1 6b 8b bd 1b 48 4d 3e ec 22 41 3e
       -0.11615213 -0.06807638 0.20047037 0.18860978
0001b0 83 8f f1 3d d1 f8 a2 3d 40 fc 27 3e 27 27 80 be
       0.11794951 0.07957614 0.1640482 -0.2502987
0001c0 d5 0e d3 3d 7e 8e 92 bc 1a d8 89 3d 37 39 28 3b
       0.10305563 -0.017890211 0.06730671 0.0025668868
0001d0 06 66 05 bd 68 35 bf bc bc ae 01 3f f6 05 7d 3d
       -0.032568 -0.023340896 0.5065725 0.061773263
0001e0 e9 8c f9 bc ab 15 30 3e 04 0b ee bd b3 52 3a be
       -0.030462699 0.17195766 -0.11623195 -0.1819561
0001f0 29 e5 4a be a9 55 90 3c e3 6f 8e 3b b4 38 c2 3d
       -0.1981398 0.017618971 0.004346834 0.094834715
000200 81 c2 2f 3e 48 43 ed bd f8 af d2 bd 3c 13 b1 3c
       0.17164041 -0.115850985 -0.102874696 0.021615617
000210 f9 7c 43 be 1d 41 2f 3e 51 e5 9c be 36 26 26 bd
       -0.19090642 0.17114682 -0.30643705 -0.040563785
000220 9a 82 c0 3d 93 e0 1d 3e b3 e1 4c 3e 48 01 17 be
       0.0939991 0.154177 0.20007972 -0.14746583
000230 b3 bc c3 3c 03 71 30 3f 20 1b 58 3d 95 89 89 3d
       0.02389369 0.6892244 0.052760243 0.06715695
000240 76 0e 41 3e c4 12 fc bd ad 22 51 be 68 23 b3 bd
       0.18853173 -0.12308267 -0.20423384 -0.087469876
000250 8f 02 4a 3e df 57 d2 bd 78 d3 97 3d de 2d 3f bd
       0.19727539 -0.10270666 0.07413381 -0.0466746
000260 d8 7f 9c bd b3 94 e5 3d d4 9a 4b bd 61 e0 a0 3d
       -0.07641572 0.11210003 -0.049708202 0.07855297
000270 79 0e 47 3e 9f 97 ad be 9c 24 35 bd a3 f4 4a 3d
       0.19439115 -0.3390474 -0.044224367 0.04954971
000280 b2 a9 e9 3d 2a b6 27 be 94 4c 56 bd df 61 a3 be
       0.1140932 -0.16378084 -0.052319124 -0.31910607
000290 1f 08 37 3e ae e9 4a be f3 c6 e4 3d 54 1a 8c bd
       0.17874192 -0.19815704 0.11170759 -0.06840959
0002a0 d1 3c 22 be 43 a3 5c bd a6 02 0c be 7f 6e a0 3c
       -0.15843512 -0.053866636 -0.13672885 0.019583939
0002b0 95 a7 08 bd f5 39 a3 bd 48 03 c3 3d 11 6c 3b be
       -0.033362944 -0.07970039 0.0952211 -0.18302943
0002c0 c4 07 d4 3d c8 11 3f be c4 d0 bb 3d 31 28 84 3d
       0.10353044 -0.18659127 0.09170678 0.064529784
0002d0 d0 ae 8a be 02 58 f1 3d 10 b0 91 3c ae 07 06 bd
       -0.27086496 0.11784364 0.017784148 -0.032722168
0002e0 e3 ec 82 bd 17 50 db 3e c5 ab ca bd a4 00 71 3e
       -0.06392839 0.4283454 -0.09896044 0.235354
0002f0 85 40 47 3e f8 79 4a 3e 97 0e e4 3c 9d 0d 1f 3d
       0.19458206 0.1977309 0.027838988 0.038831342
000300 68 3a 05 be 6f 6c 28 be 18 5f 25 3e 83 11 36 be
       -0.13010561 -0.16447614 0.16149557 -0.17780118
000310 ec e0 15 be ef eb 01 3d 3b 84 83 3d da 17 b0 bd
       -0.14636582 0.031719144 0.06421705 -0.08598299
000320 e7 02 4f 3d 03 c3 14 3e 23 e8 20 3e fc 27 bc be
       0.050539877 0.14527516 0.15713553 -0.36749256
000330 ff 31 d1 3d 4d 6c 34 3e 51 e8 21 be e0 09 76 3e
       0.10214614 0.17619438 -0.15811278 0.24027205
000340 0b c3 85 be 70 d0 da bd a7 2d 02 3e 97 d3 37 3d
       -0.26125368 -0.106842875 0.12712727 0.044879522
000350 a5 09 20 3d f8 56 1e 3d c1 3e 2c be 35 3a d6 bd
       0.039071698 0.03865716 -0.16820814 -0.10460321
000360 b9 ff 37 3e 4c 16 ff bc a0 d5 41 be 4d 4c 18 3e
       0.17968644 -0.031138562 -0.18929148 0.14872856
000370 28 83 44 3e 6f 54 81 bd 36 a0 33 be 7f 9a 88 bd
       0.19190657 -0.063149326 -0.17541584 -0.06670093
000380 85 b3 2e 3e 83 6c e1 bd aa c6 2e be 5a 41 58 bd
       0.17060669 -0.11007025 -0.17067972 -0.0527967
000390 40 c5 90 bd c1 4b db 3d 74 f6 00 be d1 4f 52 be
       -0.070688725 0.10707808 -0.12594014 -0.2053826
0003a0 f6 22 b1 be f8 d2 ed 3e c2 9d 03 bc 3f 8e 6c 3d
       -0.34596986 0.4645002 -0.008033218 0.057752844
0003b0 09 98 f7 3d 79 85 11 3e 8c e8 38 be 7d 0f 13 be
       0.12089545 0.14211072 -0.1805746 -0.14361377
0003c0 51 d3 8c bc eb 5e 02 3d ad 4e 13 bd c8 db 41 3d
       -0.017190607 0.031828802 -0.035963703 0.04732874
0003d0 1b dd 8a bd e4 ff eb 3d 91 16 53 3e 64 7b 22 bc
       -0.06780454 0.11523417 0.20614077 -0.009917114
0003e0 88 3a a9 3c 52 85 bb be c3 64 02 be 87 fb 5b bd
       0.020657793 -0.36625153 -0.1273375 -0.053706672
0003f0 2c 3a 41 be bd b3 66 bd b2 fb a0 bb 57 16 17 3e
       -0.18869847 -0.056323756 -0.004912817 0.14754616

sequential.0.Gamma.bias f4 [25]
000000 a6 bd 45 3d 6d 07 3b 3d 20 89 a8 3c 09 03 96 3d
       0.048276566 0.04566138 0.020573199 0.07324798
000010 2b 50 10 3e 6c cd 13 be 9d c2 ce 3d e8 3e 82 3d
       0.14093082 -0.14433831 0.10095713 0.06359655
000020 e9 84 07 bd ab 12 00 be 93 33 86 3c 38 8a 00 3e
       -0.033085737 -0.12507121 0.016382014 0.12552726
000030 30 7c 3d 3d 69 4e 0e 3e 9a 3e f0 bc c3 bd 16 be
       0.046261013 0.13897099 -0.029326726 -0.14720826
000040 46 39 75 3d 87 05 00 be 2a 9d 9a 3d 41 34 ad 3d
       0.059869073 -0.12502109 0.07549508 0.08457232
000050 37 42 1b 3e 5d 4e 1c 3e 50 a7 bd 3d 63 cc 0e 3e
       0.15161978 0.15264268 0.09260428 0.13945155
000060 99 00 21 bd
       -0.03930721

sequential.0.Lambda.weight f4 [25, 23]
000000 53 70 3d 3e a6 99 b9 3d 31 4c 1b bb d3 27 53 be
       0.1849988 0.09062509 -0.0023696537 -0.2062066
000010 5f 26 36 be b1 c1 32 3e 16 1f 45 be d8 1e 2f be
       -0.17788075 0.174567 -0.1925014 -0.1710161
000020 0e 85 1b 3e 35 b1 1e 3e f2 89 2f bd ed 2a 85 bd
       0.15187475 0.15497287 -0.042856164 -0.06502328
000030 28 6f ea bd 4f 19 30 be 44 e1 35 be 32 67 2f be
       -0.114469826 -0.17197154 -0.17761713 -0.1712921
000040 07 61 0c bd f6 38 e6 3d d4 ce e2 3d 86 97 99 bd
       -0.03427222 0.11241333 0.110746056 -0.07499604
000050 81 ed ee 3d d3 5a cb bd f2 06 3b be 42 e8 ad bc
       0.11666394 -0.09929433 -0.18264368 -0.021228913
000060 99 17 3f bd bb cf 8f 3e f9 25 91 3d 6b 20 12 be
       -0.046653364 0.28088173 0.07087321 -0.14270179
000070 f8 f2 ce bd 2d fe 96 bd 23 af 21 bc 7a af 04 3e
       -0.10104936 -0.07372699 -0.009868416 0.12957564
000080 0c 7b 2b 3e 55 d5 4c 3e 6f b0 06 be 85 0a 4a be
       0.16746157 0.20003255 -0.13153242 -0.19730575
000090 54 94 b1 3c 1c c6 3d 3e fd 8f 41 3e 9b 1a 62 3e
       0.021677174 0.18532604 0.18902583 0.22080462
0000a0 4a b4 d9 3c ce 18 8d 3d a7 17 d2 bc d8 ae 45 be
       0.026575226 0.06889497 -0.025646044 -0.19304979
0000b0 3e 3f a6 bd d1 06 2d bc e3 3f ff 3d cd 3b 20 3e
       -0.08117531 -0.010560707 0.12463357 0.15647812
0000c0 97 cf 69 bc 81 c1 c8 bd 25 b9 52 3e 8d ff 8e 3d
       -0.014270685 -0.09802533 0.2057844 0.06982336
0000d0 fa c2 2d 3e 51 df da bd 56 c1 f8 bc f3 e6 1f be
       0.16968909 -0.106871255 -0.030365627 -0.15615444
0000e0 49 98 ab bd 49 1c 3a bd 20 d5 d6 3d c8 cb 3b be
       -0.083786555 -0.04543713 0.10489869 -0.18339455
0000f0 ff 58 f5 bd 01 1b 05 bd 10 8b 01 be ca ba e8 3d
       -0.11979865 -0.032496456 -0.12650704 0.11363752
000100 db 47 64 3d c3 6c ec 3d 3e 5e 90 bd 25 dd 4c be
       0.05573259 0.11544182 -0.07049225 -0.20006235
000110 95 9e b8 bd a5 4a 52 be 19 e9 85 3b 6d 53 00 3d
       -0.09014622 -0.20536287 0.0040866253 0.03132956
000120 93 8a ae 3d 53 1e 25 3e 47 0f 9c bd d2 fe b4 bd
       0.08522525 0.16124849 -0.076201014 -0.088376656
000130 64 5a 27 3e e6 c4 4e be 4b 95 36 3e 1e 64 51 3e
       0.16343075 -0.20192298 0.17830388 0.20448348
000140 bd 3b 1a bd d6 c2 19 3e fb 11 3f 3e f9 fe 2b bc
       -0.037654627 0.1501573 0.18659203 -0.010497802
000150 45 25 36 be e3 d8 c6 bd 9c a4 b5 3d 83 e1 c3 bd
       -0.17787655 -0.097093366 0.08869287 -0.09564497
000160 3e d0 0e 3e e8 e7 a5 3d 83 11 f8 3d f1 12 b0 3d
       0.13946626 0.08100873 0.12112715 0.08597363
000170 92 66 0b 3d 86 3f 42 be d3 cf 3c bb 6e 39 70 be
       0.034033366 -0.18969545 -0.0028810396 -0.23459408
000180 e6 7d 57 bc 96 6a 23 bd a1 a1 3c 3d 58 17 0f be
       -0.013152575 -0.03989657 0.04605258 -0.13973749
000190 14 b2 4c be ac 8d d6 3d 55 a1 ee 3d 7a 14 b9 3c
       -0.19989806 0.104762405 0.116518654 0.022592772
0001a0 ed 03 db bc cc c4 37 be 67 58 48 3e 09 3b 38 be
       -0.02673527 -0.17946166 0.19564973 -0.1799127
0001b0 95 14 01 be 36 10 4a 3e eb 9e c9 3d 5a a3 1e 3e
       -0.12605508 0.19732746 0.09844764 0.15492001
0001c0 e0 32 4d be 54 95 d2 3c 19 28 52 3e 9d b1 2f 3d
       -0.20038939 0.02570597 0.20523109 0.042893995
0001d0 ef 73 10 3e 69 08 28 3e 03 bc 03 3f be 89 4f be
       0.14106725 0.16409458 0.5145876 -0.20267388
0001e0 0a 8e 30 3e 2c 17 01 3e 2f 4d 16 be 76 b3 28 3e
       0.17241684 0.12606496 -0.1467788 0.16474709
0001f0 87 dc 52 3e 7d 25 6d bd 05 61 fe 3d 56 d0 fa bd
       0.20591937 -0.05789708 0.12420849 -0.12246768
000200 2e d6 2f be 5f 70 95 3d bb d1 55 be b5 b5 d3 3e
       -0.17171547 0.07296824 -0.20880787 0.4134957
000210 6e fd 3e be ae ee 68 3b 53 56 70 3e ed e4 e1 bd
       -0.18651363 0.0035542655 0.2347043 -0.11029992
000220 b6 dd ca 3d 8b 9e 4d bd e2 75 18 be 28 ee a0 3d
       0.09905569 -0.050200026 -0.14888719 0.07857925
000230 2f 53 ce 3d 2a 95 21 3f 4a 88 d4 bc 69 83 1d 3e
       0.1007446 0.6311823 -0.025943894 0.1538216
000240 32 b0 65 bd da d0 3e 3e fe 06 1a 3d 82 55 89 bc
       -0.056076236 0.18634358 0.037604325 -0.016764406
000250 c8 bf 86 3d 25 3f e8 bb 65 c6 17 3e 60 10 3f 3e
       0.06579548 -0.0070876055 0.14821775 0.1865859
000260 fc d5 cb 3d da c0 8f bd 0f 40 96 3e ec ca 3f be
       0.09952924 -0.070192054 0.29345748 -0.18729752
000270 f1 eb 25 3e bf 29 da 3d 4e a1 5e 3e 75 7c 1b be
       0.16203286 0.10652494 0.2174122 -0.15184195
000280 29 da 2d 3e 5d c4 79 3d 8a f1 da 3d 36 87 4d be
       0.16977753 0.060978282 0.10690601 -0.2007111
000290 91 8c f5 3d 15 a2 4d 3e 95 d8 bd 3d a7 da 1d 3e
       0.119897015 0.2008136 0.09269825 0.1541544
0002a0 b8 04 b9 bd 22 4e 3d 3c ec b3 b6 3c 0f 0e c3 bd
       -0.09034103 0.011554273 0.02230259 -0.09524166
0002b0 3e 1d 0e 3e 76 eb c9 bd 09 82 17 be f5 43 cf 3d
       0.13878343 -0.09859364 -0.14795698 0.10120384
0002c0 b2 52 33 be 9f 50 1a be a6 39 46 be e2 55 1d be
       -0.17512015 -0.15069817 -0.19357929 -0.15364793
0002d0 58 e2 0b 3e 5e 95 2b be d7 e7 19 3d 6a 77 30 be
       0.13660562 -0.16756198 0.037574615 -0.17233053
0002e0 94 85 a7 bd 8c 35 f1 3e 4a e8 35 3e 02 b3 af 3e
       -0.08179775 0.47111166 0.17764392 0.3431626
0002f0 d4 e9 e1 bd 33 ad 9e bd e7 97 fe bd f5 fb ed bd
       -0.11030927 -0.07747879 -0.12431317 -0.116203226
000300 02 f1 4f bd 41 55 cf bc 2a a8 6d 3c 2a 83 8e bd
       -0.050766952 -0.025309207 0.0145054255 -0.06958611
000310 1e 23 ce bd 39 a1 14 be e1 df 0f bc fc 32 e2 bc
       -0.10065292 -0.14514627 -0.008781404 -0.027612202
000320 f5 be 15 bd b0 f1 c5 bd 53 dc 4d 3e c9 ce 06 be
       -0.036559064 -0.09665239 0.20103578 -0.1316482
000330 23 7a 26 be 64 1c 90 bd 9b 9e 40 3e 06 52 9d 3e
       -0.16257529 -0.07036665 0.18810503 0.3072664
000340 d4 25 12 bd 81 fd 6c 3e 68 42 df 3d 61 7c 9e bc
       -0.035680607 0.23143579 0.10901338 -0.019346418
000350 78 3f ca 3d b4 33 b7 3d 10 d0 43 3e d6 3b 0d be
       0.09875387 0.089454085 0.19122338 -0.13792357
000360 46 f5 3c be a7 e8 58 bd e9 ca 13 3e f2 43 29 be
       -0.1845294 -0.05295625 0.14432873 -0.16529825
000370 99 85 1b 3c db 53 00 be 19 de a2 3d 57 56 45 3e
       0.009492301 -0.12531988 0.07952518 0.19271217
000380 26 e4 0a be fb 37 b7 3d 72 8e 9c bd 80 63 97 bd
       -0.13563594 0.08946224 -0.07644357 -0.07392025
000390 8a d1 52 3e 7b e6 81 3d b0 78 bd bd 29 33 47 be
       0.20587745 0.06342789 -0.09251535 -0.1945311
0003a0 20 1a b2 bd bd e2 ad 3e 9a 5e f5 3b 07 5f 31 3e
       -0.08696389 0.3396205 0.007488084 0.17321406
0003b0 49 d5 51 bd 9c 14 cd 3c d3 5c a2 3c b9 f3 3d 3d
       -0.051228795 0.025034241 0.019819653 0.04637501
0003c0 42 b6 2b be 4d 08 b6 bd a5 1c 4d be f6 5d 38 be
       -0.16768745 -0.08888302 -0.20030458 -0.18004593
0003d0 d0 0d 29 be 1f 6a 37 be e6 c5 03 3d f7 8e 32 3e
       -0.16509175 -0.17911576 0.032171153 0.1743735
0003e0 53 33 2b be cb bd f4 3d 98 b7 c1 3d 1a 28 90 bd
       -0.16718797 0.11950263 0.09458846 -0.07038899
0003f0 e7 fa a5 3c df d7 d7 3d 52 a5 b9 bd 99 cc 7e 3e
       0.020261241 0.10539221 -0.090647355 0.24882735

sequential.0.Lambda.bias f4 [25]
000000 65 38 e0 bd ab d5 8d bd e4 d6 18 bd 67 a2 f3 3d
       -0.109482564 -0.069255196 -0.03731431 0.1189621
000010 49 64 2d 3d 5b 63 f7 3d 4b bb c2 3d 1d 7b 19 3e
       0.042331968 0.120794974 0.095083795 0.1498837
000020 c6 15 dc 3b ee 34 49 bd 68 68 c7 3d 7a 56 12 3e
       0.006716463 -0.049122743 0.09736711 0.142908
000030 06 51 57 bd 57 70 44 be f7 6c 34 bd 95 28 5e bd
       -0.052567504 -0.19183479 -0.04404923 -0.05423792
000040 7a 45 52 3d 0b 28 4e 3e d0 d2 c2 bb 4f d3 b7 bd
       0.05133579 0.20132463 -0.005945541 -0.08975851
000050 9d 2f 26 be db 31 4f 3e e4 52 55 be e7 1d 4e 3e
       -0.162291 0.20233862 -0.20832402 0.20128594
000060 d6 46 1e 3e
       0.1545671

sequential.2.Gamma.weight f4 [20, 25]
000000 d6 c3 01 3e 70 e0 83 3d 7c 84 27 be 22 0d 39 be
       0.12672362 0.064392924 -0.16359133 -0.18071416
000010 6b 6d 98 3d fe ab 79 bd f7 75 b9 3d 32 f5 11 bc
       0.07442745 -0.06095504 0.09055703 -0.008908557
000020 74 56 89 bc 58 6c 09 3e 7c 52 4b 3d 5f db ad 3c
       -0.016764857 0.13420236 0.04963921 0.021222768
000030 ba c0 37 3d fb a7 4b bd a0 73 87 be cb 26 79 3d
       0.044861533 -0.049720746 -0.26455402 0.06082801
000040 f1 cf 84 bc 98 bc 1d 3e 00 d9 ab 3d 15 a5 69 be
       -0.016212435 0.15403974 0.08390999 -0.2281688
000050 27 50 42 bb 60 d1 5f bd 48 8b 1a be 72 eb ea bd
       -0.0029649825 -0.054643035 -0.15092194 -0.11470689
000060 ec 94 b2 bc 62 5c 23 be 34 48 57 bc 27 6f 46 3e
       -0.021799527 -0.1595321 -0.013139773 0.19378339
000070 95 e4 bc 3d 6b 7b e8 3d f3 7c d7 bc 47 b3 d5 3c
       0.09223286 0.11351665 -0.026304698 0.026086463
000080 f6 1f 84 be f1 24 4c 3e 53 78 83 3e b9 9f 32 3e
       -0.25805634 0.19935967 0.25677738 0.17443742
000090 44 6f 91 bd 70 40 e5 bb 49 91 86 3e bb ba aa be
       -0.071013 -0.006996207 0.2628272 -0.3334559
0000a0 5e a9 43 be ef 25 b5 bd 7b 3d 5b bd 07 da cc bc
       -0.19107577 -0.08845126 -0.05352543 -0.025006307
0000b0 48 01 05 bf 68 d7 92 3b 46 f5 24 bc 49 dc 7a bd
       -0.5195508 0.004481245 -0.010068243 -0.061245237
0000c0 6c 68 be be 47 92 86 bd f2 05 e2 3d af 39 95 bc
       -0.37189043 -0.06570869 0.1103629 -0.018215982
0000d0 de 51 08 3d 29 88 62 bc 49 a4 a9 3c 7e a9 29 be
       0.0332812 -0.013826408 0.02070822 -0.16568562
0000e0 bd 18 b2 3d a7 5b ad bd 44 b0 0f be 81 80 cb bd
       0.08696125 -0.08464747 -0.14032084 -0.099366195
0000f0 2c 75 06 be 2d 77 af bd f6 b4 48 be 41 26 4b bd
       -0.13130635 -0.08567653 -0.19600281 -0.04959703
000100 7a 53 67 be 34 71 25 be 25 ad 38 be 28 78 98 3d
       -0.22590438 -0.16156465 -0.180348 0.07444793
000110 a7 3f 01 be 11 a4 3e bd d0 80 a9 3d 03 3f 2d be
       -0.12621938 -0.046543185 0.08276522 -0.16918568
000120 cb b1 3f bd fc ec 62 bd 7c 47 e8 ba 59 77 be bc
       -0.046800416 -0.055401787 -0.0017721499 -0.023250269
000130 78 f1 20 be c3 e1 0e bd cf d2 9f bd c4 b3 a0 bd
       -0.15717113 -0.034883272 -0.078038804 -0.078467876
000140 31 3c ef 3d 70 20 c3 3c 20 a4 25 be 3e 53 bc bd
       0.116814025 0.023819178 -0.1617589 -0.09195565
000150 ed 7c cc bd 55 57 6c 3d 23 a4 8b bc 00 14 b2 be
       -0.09984765 0.057700474 -0.01704604 -0.34780884
000160 16 a4 a8 bd 04 a0 85 bd f5 ff 0b 3e bd 1c c9 3d
       -0.08234422 -0.06524661 0.13671859 0.098199345
000170 f9 de 98 3c 7f 45 22 be de 1a 00 bf 6a d3 5e 3d
       0.01866101 -0.15846823 -0.50040996 0.05440084
000180 8f ca 3d 3e 98 75 04 be 6c 2c 8a 3d 90 b9 87 3e
       0.18534301 -0.12935483 0.06746754 0.2650876
000190 a1 72 a2 3d 74 c0 66 3d 7b b5 14 be 3e e3 f5 3d
       0.0793202 0.05633588 -0.14522354 0.12006234
0001a0 35 ea 2c be e6 1c 14 bc bc 2a af bd 83 29 9f bd
       -0.16886218 -0.009040093 -0.08553073 -0.077715896
0001b0 71 3c 14 3e e0 fa 53 bd 0d d7 0d bd d4 4b 03 bd
       0.14476182 -0.051752925 -0.034628917 -0.032054737
0001c0 a7 b7 34 be c8 66 a8 bd 81 22 a5 3d 0e f4 bb bd
       -0.17648183 -0.08222729 0.08063222 -0.09177409
0001d0 14 b0 18 be d3 cb 07 bd b1 e7 48 3b 0a 0e b4 bd
       -0.14910918 -0.033153366 0.0030655677 -0.0879174
0001e0 34 d3 2d bd 69 76 86 3d 6c 73 b0 3d 6d 6e a9 3d
       -0.042437747 0.06565554 0.08615765 0.08273015
0001f0 f4 cd 67 3c 62 df 51 be 6d 32 30 bd d5 6d a7 3d
       0.014148224 -0.2049537 -0.04301684 0.08175246
000200 79 0b aa bc 85 b2 95 3d 33 54 80 bc 57 dc 17 3e
       -0.020757424 0.073094405 -0.01566515 0.14830147
000210 15 bf 05 3e 91 9a 3c 3e ae 61 2f 3e 05 f6 f3 3c
       0.13061173 0.18418337 0.17127106 0.029780397
000220 94 1e 84 be 4c ad b4 bd e1 98 66 3e e6 98 db be
       -0.2580458 -0.08822116 0.22519256 -0.4289009
000230 b4 0c b2 3c 85 f8 d8 3c 1f f7 07 bc b2 ad 3e be
       0.021734573 0.02648569 -0.008298664 -0.18620947
000240 a6 a2 45 be 86 b7 c1 be 86 2c 17 be d3 eb 0a be
       -0.19300327 -0.3783533 -0.14763078 -0.13566522
000250 f6 c0 19 be 7b e7 96 3d 6e 6f 05 bd 9e 12 03 be
       -0.15015015 0.0736837 -0.03257697 -0.1280007
000260 dd 7a c8 bd a6 34 a5 3d d3 85 19 3e dc 89 1b bd
       -0.09789059 0.080666825 0.14992456 -0.03797327
000270 b9 73 44 be 2b 0f 4c bd 50 12 37 be 36 7c 12 be
       -0.1918477 -0.049819153 -0.1787808 -0.14305195
000280 9b 68 df bd e8 42 0f 3c 99 0f f2 bd 1a 1c 30 be
       -0.10908624 0.008743979 -0.11819381 -0.1719822
000290 50 b1 08 3d df 19 9d 3d 94 ce aa be 1f 01 db 3d
       0.033372223 0.0767095 -0.33360732 0.10693573
0002a0 65 1f 37 3d be 98 e9 3d 85 39 7a be ce fe 2b be
       0.044707675 0.114060864 -0.24436004 -0.16796419
0002b0 e7 f3 e7 3c 0c 04 af be 07 04 b8 bd a2 e9 82 3d
       0.028314544 -0.34182775 -0.08985143 0.06392218
0002c0 fd f2 01 be 0f 2c 8a 3d d6 05 80 bc a3 46 31 3e
       -0.12690349 0.06746685 -0.015627783 0.17312102
0002d0 a9 7a 34 3c 50 0f 1e 3e b6 98 10 be 9b ca 91 bd
       0.011015573 0.15435529 -0.14120755 -0.07118722
0002e0 14 8b a7 bc 33 a5 36 bd 31 bd 6f bd 42 22 7a bc
       -0.02045206 -0.04459114 -0.058530036 -0.015266957
0002f0 66 8b 10 3e 19 d6 22 be 71 c7 14 3d b8 b0 3b be
       0.14115676 -0.15901984 0.036323015 -0.18329132
000300 a1 77 0e be a3 a0 d2 3c c2 7d 6f be e5 d7 b3 bd
       -0.13912822 0.025711363 -0.23387817 -0.08781413
000310 cd b9 91 3c 7c 0a da bd fc 51 4a be 06 d3 84 3c
       0.017788792 -0.10646531 -0.19757837 0.016213905
000320 b2 8e 85 bd f4 1f 68 3d ec 0d 06 bd 0a 28 00 3e
       -0.065213576 0.056671098 -0.03272812 0.12515274
000330 67 72 31 be 07 e6 0c be 18 3c 47 3b 55 be a9 bd
       -0.17328797 -0.13759623 0.003040081 -0.08288256
000340 c6 74 aa 3d 36 d4 39 3e e5 e8 ab bd b7 6f a9 3d
       0.08323054 0.18147358 -0.083940305 0.08273261
000350 17 36 ff 3d 53 ba 76 bd 58 fe 33 be c1 01 e0 3d
       0.12461489 -0.060236286 -0.17577493 0.109378345
000360 76 98 3b be 91 01 b3 bd 50 4a 31 be ee 3d 36 be
       -0.18319878 -0.08740533 -0.17313504 -0.17797062
000370 51 73 e3 bd 45 ec 41 be 3a 56 f7 bd 75 79 06 be
       -0.11105979 -0.18937786 -0.12076993 -0.1313227
000380 5d ab 67 be 11 6d 85 3d 1e 18 13 3e 6f 2f 06 3e
       -0.22623964 0.065149434 0.14364669 0.13104032
000390 7f e6 38 3d 21 dc 07 3e 67 26 f7 3d 6e c3 4e bd
       0.045141693 0.13267566 0.120678715 -0.050479345
0003a0 07 8a b0 3d 64 c5 5b be 05 d1 bd bd 1a b0 85 3b
       0.086200766 -0.21462017 -0.09268383 0.004079831
0003b0 fb 52 bd 3d 00 92 92 3b f8 e3 21 be 6e af 24 3d
       0.09244343 0.004472971 -0.1580962 0.040206365
0003c0 4d 2b f5 bd 7f 88 62 bd 19 e7 eb 3c c0 1e 16 be
       -0.119711496 -0.055305954 0.02879672 -0.14660168
0003d0 11 01 98 3d de 37 e6 bc 6e 97 21 3e 23 d2 97 3d
       0.074220784 -0.028102811 0.15780422 0.07413127
0003e0 c3 93 b2 bd 44 8e 07 3e 4d 1e ee bc 19 99 e8 3d
       -0.087195896 0.13237864 -0.029067183 0.11357326
0003f0 61 f5 28 3e 26 eb 74 3d 50 bf a4 bc f2 e0 6d be
       0.16499855 0.059794568 -0.020110756 -0.23230341

sequential.2.Gamma.bias f4 [20]
000000 c5 9a 34 3d 5f 27 cd bc 76 6e 28 3c a4 27 20 3d
       0.044092912 -0.025043188 0.010280242 0.039100304
000010 6e f2 17 bd 4d 1a 40 3e 02 bd 63 3e a6 78 81 3d
       -0.037096433 0.18760033 0.2224007 0.0632184
000020 bd 4e 3e 3d d4 5a 41 3d 52 b4 0f be 1e 08 c1 bd
       0.04646181 0.04720576 -0.1403363 -0.09425376
000030 f6 1b 87 bc c6 6e a9 bd b4 50 7c bd 30 4d e8 3d
       -0.016492825 -0.082730815 -0.061600402 0.11342847
000040 3e 1d 4b 3e ae 76 09 be c7 de 35 bd 7c 94 ec bd
       0.19835374 -0.13424179 -0.04440191 -0.11551759

sequential.2.Lambda.weight f4 [20, 25]
000000 3a f1 9b 3d a2 f3 30 3e a2 8a ca 3d 60 22 0d 3e
       0.0761437 0.17280439 0.09889723 0.13782644
000010 ad 68 fd bd 04 53 9f 3d d3 5b d6 bc f5 6a 9d bb
       -0.12373481 0.07779506 -0.026166832 -0.00480401
000020 dc e6 56 3b 23 19 e1 3d 94 0d 08 3e 2f 08 ab 3d
       0.0032791412 0.109911226 0.1328643 0.0835117
000030 e4 4a 17 3d a0 db 9b bd 72 33 7c 3e 34 38 5f 3c
       0.036936656 -0.076102495 0.24629 0.01362424
000040 e1 8b 51 3e 10 71 c8 bc c3 96 67 3d 1b 1c 7f 3e
       0.20463516 -0.024467975 0.056540262 0.24913065
000050 c1 83 1d 3e e6 96 33 3e 81 4c e4 bd aa e9 c2 3d
       0.15382291 0.17538032 -0.111474045 0.09517224
000060 e4 32 f7 3d a0 11 ff bd 1c e7 99 be 56 8e a7 bd
       0.120702535 -0.124545336 -0.30059135 -0.08181445
000070 d5 f0 cf bd e3 bb 64 3e 10 a9 96 3e 83 5a 70 3e
       -0.10153357 0.22337298 0.2942586 0.23472027
000080 82 c1 7c be 6c 72 b8 3d da fc 05 3e 23 09 10 3d
       -0.24683192 0.09006199 0.13084736 0.035164963
000090 bd 08 40 bd 2f 17 0a 3e 8f 88 97 3b b9 61 81 be
       -0.046883333 0.13485406 0.0046244333 -0.2526987
0000a0 4f 0c ec bd 89 b5 6d 3e 60 90 ab 3d 2c 16 a3 3e
       -0.11525785 0.23213781 0.08377147 0.31852853
0000b0 43 1e c6 bd c2 d2 53 3e d3 28 92 3b 94 8c 38 3e
       -0.09673741 0.20685866 0.004460433 0.18022376
0000c0 c6 3a 94 3e 79 15 af 3e a2 10 1d 3e 00 85 23 bc
       0.2895109 0.3419607 0.15338376 -0.00998044
0000d0 dc f3 02 bc f8 88 e1 3d 5a 75 f7 bd df 8f 0d bd
       -0.007992711 0.11012453 -0.1208293 -0.034561034
0000e0 f5 de b9 3d 0e 09 20 be 31 29 2c be 14 82 c0 bd
       0.09075729 -0.15628454 -0.16812588 -0.093998104
0000f0 81 32 27 be 84 a3 41 3d e2 a0 10 be 0c e6 16 3e
       -0.1632786 0.04727508 -0.14123872 0.14736193
000100 3b 2a a7 3d eb 6c bc 3c 53 93 ac bd cf d9 85 3d
       0.08162352 0.023001155 -0.08426537 0.06535684
000110 0b 78 10 be ac 69 55 bc 23 7b 92 bd 06 93 f4 bd
       -0.14108293 -0.013025682 -0.07152393 -0.11942105
000120 8a 88 3e 3e 69 20 c3 3d ee de 3b 3e 8a bb b4 3d
       0.18606773 0.09527666 0.1834676 0.08824833
000130 f0 1f 0f be 3b c4 dc 3c 2f c9 c0 bd c6 4a 27 3e
       -0.13977027 0.026949039 -0.09413373 0.16337118
000140 9b e7 07 3e b2 e7 40 3e 54 9c f7 bd f5 80 4e 3a
       0.13271944 0.18838385 -0.12090364 0.00078774925
000150 d0 75 2a bd 1e fd 0b bc c5 f1 2f bd 17 fa 62 3c
       -0.04161626 -0.008544235 -0.04295518 0.013853571
000160 09 c7 23 be df d4 0f 3d 32 07 3a bd cd 13 cb bd
       -0.15993895 0.03511512 -0.04541702 -0.09915886
000170 10 3e fc bd f0 b1 5d 3e dd bb b1 be a1 14 41 3e
       -0.12316525 0.21649909 -0.3471364 0.18855526
000180 60 77 f0 bd 99 d9 9a 3c 83 28 87 be 68 03 e8 bb
       -0.11741519 0.018902587 -0.26398095 -0.007080484
000190 1a 59 76 bd c8 b4 aa bd f9 b5 9b 3d 8e ec ad 3c
       -0.060143568 -0.083352625 0.07603068 0.021230962
0001a0 58 fd 43 3e 34 d3 29 bd 6a 7d ed 3d 2d a8 14 3e
       0.19139612 -0.041461185 0.115961865 0.14517279
0001b0 cc ac 29 3c 9d 12 e3 3c ae 9d a5 bc b2 0c 07 be
       0.010356139 0.027718836 -0.02021679 -0.13188437
0001c0 82 d3 1b be e4 c1 2f bd f2 a6 f2 3d aa 3f d1 3d
       -0.15217403 -0.042909518 0.118482485 0.10217221
0001d0 ba 31 2a be 37 f3 49 3e 67 e9 5b bd 8b 53 0e 3f
       -0.16620532 0.19721685 -0.053689387 0.55596226
0001e0 11 b6 6d 3e a0 a8 24 be 8b 06 17 3e 67 f8 62 be
       0.23213984 -0.1607995 0.1474859 -0.2216507
0001f0 45 c9 fa bd a8 a7 3c 3b 7a 3e 63 3d 0c fb 3f be
       -0.1224542 0.0028786454 0.055479504 -0.1874811
000200 26 1b 0d 3e b2 11 b9 3b ad 10 18 3e 67 69 06 3d
       0.13779888 0.0056478614 0.14850111 0.032815363
000210 6c cd 19 be a3 df c2 ba ba da 13 be ef 4e 0b 3e
       -0.15019768 -0.0014867674 -0.14438906 0.1360433
000220 6e f7 93 3c 75 db 53 3e 28 12 ff 3d a1 7a 3a bd
       0.01806232 0.20689185 0.12454635 -0.045527104
000230 3c fa 4d 3e ab f0 4e 3c d5 c1 33 be b6 df ad 3e
       0.20114988 0.012630622 -0.1755441 0.3395974
000240 ce 55 d5 3e 1a eb ab bd c0 8c c0 bd 70 a1 0e be
       0.41667026 -0.083944514 -0.09401846 -0.13928771
000250 0c b0 92 3e 1f fb 0b 3e 5d 64 15 3e 56 73 98 3c
       0.28649938 0.13670014 0.14589067 0.018609684
000260 ed 70 5a 3d 66 da cc bd 10 ce 2b bd 47 03 78 be
       0.05333035 -0.10002594 -0.041944563 -0.2422
000270 15 45 ad bd b3 35 9a bd 94 37 a9 3c de 35 6a bd
       -0.08460442 -0.075297736 0.020656385 -0.057180278
000280 7f 5c 95 3c 2b 9d 29 3e cd 5f 3d 3d 9a 3d 25 be
       0.018232582 0.16563861 0.04623394 -0.1613678
000290 a6 a7 81 3e 5d 72 b5 bd 25 18 35 3e ec 41 8e bd
       0.25323218 -0.08859704 0.17684992 -0.06946167
0002a0 f6 5b b7 be e5 2f 34 3f bd 42 b3 3d 11 d4 47 3d
       -0.35812348 0.7038558 0.08752964 0.048786227
0002b0 fc 96 3b be 18 89 33 3e 81 88 fd bd 95 73 3d 3e
       -0.18319315 0.17532766 -0.12379552 0.18501122
0002c0 c5 63 a8 bc 80 5b ae 3d af e3 1c bd 5c 17 47 3e
       -0.020555386 0.08513546 -0.038303073 0.19442505
0002d0 6b 61 8d bc 8a a7 ae 3d fb da 3c 3e 08 9b 08 3e
       -0.017258367 0.08528049 0.1844291 0.1334039
0002e0 8f b8 e7 3d ac 05 4a be d0 e6 03 3e 92 5b 19 be
       0.11314499 -0.19728726 0.12881017 -0.14976338
0002f0 64 7d 4a be c1 b5 4b 3e 34 6a 2d be 7f e6 22 3e
       -0.19774395 0.19893552 -0.16935045 0.1590824
000300 bc 51 16 3e 2d 8f d4 bd 47 88 78 bd 30 2f 8b 3c
       0.14679617 -0.10378871 -0.06067684 0.016990274
000310 87 7f ed bc 23 77 dd bb 6c 83 4f bd 34 79 34 3e
       -0.028991474 -0.006758587 -0.050662443 0.1762436
000320 e5 08 98 3d 6e 3d 15 be e2 56 93 bd da 88 0e bd
       0.074235715 -0.14574215 -0.07194306 -0.03479848
000330 2d 3f 13 3e b4 f3 b6 bd 8c 0b 1f bd 34 30 5c 3d
       0.14379568 -0.089332014 -0.03882937 0.053756908
000340 e9 09 89 bd 7f fe 95 3c 7f 2f 82 3c 64 69 2a bd
       -0.06691343 0.01830983 0.015891789 -0.041604415
000350 18 54 0c be e7 71 16 3e db a1 57 bd b7 d1 d7 bd
       -0.13703954 0.14691888 -0.05264459 -0.10538047
000360 e9 5f f7 3b fc 64 ac bd 00 91 aa 3d 6f 63 08 be
       0.007549275 -0.08417699 0.08328438 -0.13319181
000370 38 7f 2d 3d e6 45 0c be 50 17 f2 3d a9 6a b7 3d
       0.042357653 -0.13698539 0.11820853 0.08955891
000380 e4 6a 20 be 1f 9c 1b bb be e3 1c bd f0 ee d5 3c
       -0.15665776 -0.0023744178 -0.03830313 0.02611491
000390 24 7e 45 3d 95 7d 70 bd 94 b9 d2 3c 2c 17 67 be
       0.048216 -0.058713514 0.025723256 -0.22567433
0003a0 d2 b4 09 3e 1d b3 08 be 95 05 c5 bd 10 d0 20 3e
       0.13447884 -0.13349576 -0.09620205 0.1570437
0003b0 f0 2c 09 be 0d 8b 98 be 87 e7 77 bd 8d 44 15 be
       -0.13396049 -0.29793587 -0.060523536 -0.14576931
0003c0 7a 31 fd bc 57 a2 e8 bd dc 6f 23 3e f3 22 ef 3d
       -0.030907381 -0.11359089 0.1596064 0.11676588
0003d0 a3 01 eb be 7b bb 16 3e f6 cb 79 3d 6c 54 e1 bc
       -0.45899686 0.14719956 0.060985528 -0.027506076
0003e0 21 0b 03 bf 63 57 20 3d 92 a8 0e bd 12 82 0e be
       -0.51188856 0.03914584 -0.03482873 -0.13916805
0003f0 bb ec 01 3e c6 62 dc bd 3f b6 24 bd 13 76 27 bd
       0.12687962 -0.10761027 -0.040212866 -0.04088409

sequential.2.Lambda.bias f4 [20]
000000 a1 dc 52 bd e6 c9 cc 3d 26 e9 09 3e fb ae 8f 3d
       -0.05147994 0.099994466 0.13467845 0.07015797
000010 c9 55 31 3e 9d 9b 98 bd 12 8d b2 bd aa 79 98 bd
       0.1731788 -0.07451556 -0.08718313 -0.074450806
000020 ce 02 11 be 80 55 f1 3b 15 9b 0c be dd 78 00 3e
       -0.14161226 0.0073649287 -0.13731034 0.12546106
000030 20 02 f3 bd e7 12 4a be 0c 15 a5 3d 8b f6 39 3d
       -0.1186564 -0.19733773 0.08060655 0.045401137
000040 00 54 ca 3c a0 41 c3 3d b7 9f 32 3e 93 5e 40 bd
       0.024698257 0.09534001 0.17443739 -0.046965193

sequential.4.Gamma.weight f4 [15, 20]
000000 9b 83 2e be 77 6b 42 3e 1c f1 81 3d db 0b 0d be
       -0.17042391 0.18986307 0.06344816 -0.13774054
000010 c2 97 29 be 53 2f 80 bd c9 d1 0b be ee ed 1d 3d
       -0.16561797 -0.062590264 -0.13654245 0.038556986
000020 8c 8e e4 3d e9 7e 01 be 70 e9 43 be b4 cd b4 bd
       0.11160001 -0.12646069 -0.19132018 -0.08828297
000030 bf 24 6d bd 16 b8 22 3e 57 38 2d bd 42 60 15 3e
       -0.057896372 0.15890536 -0.042290058 0.145875
000040 71 73 a6 bd dd 21 47 be df 6f 14 bd 61 6b 4b be
       -0.081274875 -0.19446512 -0.0362395 -0.1986518
000050 9f 8c 5a be 41 8a da 3d 78 a7 72 bd ba e5 9b bd
       -0.21342705 0.10670901 -0.059241742 -0.07612176
000060 85 55 1e be 52 51 23 be 28 e0 84 bd 22 28 39 be
       -0.1546231 -0.1594899 -0.06488067 -0.18081716
000070 99 0d 35 be 3e ae 1f be 2b c4 24 3d 42 e6 94 bd
       -0.17680968 -0.15593812 0.040226143 -0.07270481
000080 19 fc 55 be 89 6b 08 be 43 54 0e be 88 80 47 3d
       -0.20896949 -0.13322271 -0.13899331 0.04870656
000090 1f f4 ce bd 1a 9d 9f bd 44 21 2b be 84 ca 1d be
       -0.10105156 -0.077936366 -0.16711909 -0.15409285
0000a0 34 26 5b 3d 7e d6 6b be e5 fa 23 3e 8f b9 ac be
       0.05350323 -0.23031041 0.16013677 -0.3373532
0000b0 9c 87 bf be ba ea 3f 3e 10 32 f7 be 2a 2e 44 3b
       -0.3740815 0.18741885 -0.48280382 0.0029934742
0000c0 ca cc 16 3e 25 81 40 be a9 a1 55 be 05 84 d7 3d
       0.14726558 -0.18799265 -0.2086245 0.105232276
0000d0 94 2d 46 3e 05 8b 27 3e c3 38 0f be ef f1 99 3c
       0.19353324 0.16361625 -0.13986497 0.01879212
0000e0 5e 7e 78 be 8e 33 66 3e e1 f0 8a 3d 77 17 1c 3d
       -0.24266955 0.22480604 0.06784225 0.038108315
0000f0 83 7b 74 be 09 c8 13 3d 09 ff 0a 3d 51 67 39 be
       -0.23875241 0.03607944 0.033934627 -0.18105818
000100 af 12 71 bd 00 b1 46 3e 66 3e eb bd c4 6b 63 be
       -0.05885571 0.19403458 -0.11486511 -0.22209078
000110 6a 1f 6a bd c8 f4 ed bd f0 df 0a be 3d d2 11 3d
       -0.057158865 -0.11618954 -0.13561988 0.03560089
000120 c6 ab 1b 3e 08 f5 64 be 86 9d 1f 3e 7a ff 2f be
       0.15202245 -0.22359097 0.15587434 -0.171873
000130 0f c7 77 bd e8 d2 26 3e b6 63 aa bc a6 41 4c 3e
       -0.06049257 0.16291392 -0.020799499 0.19946918
000140 c4 c7 98 3c a1 cb 23 bd 38 a1 16 bd 2b 8c 7f be
       0.018649943 -0.039989118 -0.036774844 -0.24955814
000150 ab 4a 8a 3d 11 a2 c3 bd b2 4e 8b be df b8 52 3e
       0.06752523 -0.09552396 -0.27208477 0.20578335
000160 4e bb f2 bd 56 a5 0a be aa dc a8 3c 02 dd 27 3d
       -0.11852132 -0.13539633 0.020613033 0.040982254
000170 d7 86 be bd 17 56 f6 bc 6e a4 66 3c 06 47 dd bd
       -0.093030624 -0.030070348 0.014077289 -0.10804562
000180 0f cb 0f be 05 4d 05 3e a3 5d d0 bd 53 94 23 bd
       -0.14042304 0.13017662 -0.1017411 -0.039936375
000190 96 39 2a be f4 94 80 be eb d7 1d 3e f8 90 87 be
       -0.1662353 -0.25113642 0.15414397 -0.2647779
0001a0 49 eb 9b 3d 74 84 28 be a3 62 8d 3d 7c 0b 48 be
       0.076132365 -0.16456777 0.06903579 -0.19535631
0001b0 87 f1 32 3d ba ef 7f bc e3 6d 66 be cb 4d 9e 3c
       0.04368737 -0.01562112 -0.22502856 0.019324204
0001c0 2e 55 d8 bd 7b 36 15 3d 08 5e 3d be 98 ec 0d be
       -0.10563122 0.03642891 -0.18492901 -0.13859785
0001d0 c2 de 92 bd 55 91 f1 bd cd 45 0e 3d 9a 3a 9c 3d
       -0.07171394 -0.11795298 0.034734536 0.07628365
0001e0 e1 02 82 be 18 cc 2d 39 20 31 de bd c4 a5 d3 bc
       -0.2539282 0.00016574597 -0.108492136 -0.02583588
0001f0 bb 17 0e be b2 1d d7 be 97 25 00 bf a9 8e c4 3b
       -0.1387624 -0.42014843 -0.5005736 0.0059984517
000200 20 fb 84 be b9 9f 65 be 24 75 96 3c ae 57 14 be
       -0.25972843 -0.2242421 0.018366404 -0.14486572
000210 fd 54 87 3e 8c 88 b0 3d a0 47 79 3e 43 21 e3 3c
       0.26432028 0.08619794 0.24343729 0.027725821
000220 aa de e9 3d 32 97 09 3e 53 15 32 3d 5e 62 a7 be
       0.11419423 0.13436583 0.043477368 -0.32692236
000230 45 fe 03 be 4a 99 f5 3d e3 77 41 3d ae c4 30 be
       -0.12889965 0.11992128 0.047233474 -0.17262527
000240 84 74 52 3c 28 49 0b 3e e1 99 27 bd 6f 07 37 be
       0.012845162 0.13602126 -0.040918235 -0.1787393
000250 41 ae 30 be 03 f6 8d be dd a2 23 3e 5f a9 63 bd
       -0.17253973 -0.27726755 0.15980096 -0.055581447
000260 af 71 b6 3d 3f 90 c8 bd d7 00 11 be 19 ee 3c be
       0.08908402 -0.09793138 -0.14160477 -0.18450202
000270 10 81 57 bd 3e 4a 33 be 9f 01 90 3c 9a 71 0e be
       -0.052613318 -0.1750879 0.017578898 -0.13910523
000280 3f 56 9c 3c f2 b2 40 3e 94 ae 98 bd 17 b0 a1 be
       0.019084094 0.18818262 -0.07455173 -0.31579658
000290 34 a5 89 bd 56 ad 77 3e 97 2e 9c be 7b ac 8d 3d
       -0.06720963 0.24187216 -0.30504295 0.06917664
0002a0 33 5e 59 3e 51 8c 12 bf 9e 6d b4 bd 3e 1c 5c bd
       0.2122734 -0.57245356 -0.0880997 -0.05373787
0002b0 9f d6 e5 bd 74 8e 02 3d 68 1f 1d be 09 06 17 be
       -0.11222576 0.031874135 -0.15344012 -0.14748396
0002c0 42 4d 21 3e 87 77 82 bc 6b f3 d1 3d d5 08 86 3e
       0.15752128 -0.015926136 0.102515064 0.26178613
0002d0 2e 34 f3 bd 01 94 f4 3e 97 63 62 be 79 54 99 bc
       -0.11875187 0.47769168 -0.22108303 -0.018717038
0002e0 69 fc 01 be d3 8f aa bc d5 bc 95 be 3a 45 fd 3d
       -0.12693943 -0.020820534 -0.2924563 0.123667195
0002f0 7a 56 00 3e eb f0 bd be eb 52 05 3d 31 5f 44 be
       0.12532988 -0.37097868 0.03254978 -0.19176938
000300 98 65 ae bc 60 c6 14 3e f3 e7 2f 3d d6 d2 2e bd
       -0.021288678 0.14528799 0.042945813 -0.042681538
000310 0c e8 e6 bd 3b 3f 43 3d db 8f 11 be 5f a6 ff bd
       -0.11274728 0.047667723 -0.14215033 -0.12482905
000320 18 51 21 3e f2 c2 76 bd 14 e1 e6 bd bf 03 25 be
       0.15753591 -0.060244508 -0.11273399 -0.1611471
000330 f8 04 2a 3c 33 fa 2c 3e 81 93 69 bc 0a 80 0e be
       0.010377161 0.16892318 -0.014256359 -0.1391603
000340 49 20 a9 3d f1 4b 5a be e2 f3 1e 3d a7 a7 9d bc
       0.08258111 -0.21318032 0.038806804 -0.019244982
000350 21 fb ec 3d 6e 96 c3 bb 8b 0d 3f 3d a2 0c a6 3d
       0.115713365 -0.0059688604 0.046643775 0.08107878
000360 86 a5 46 be 07 b0 42 be 4c bc 20 3e 07 7f 41 be
       -0.1939908 -0.19012462 0.1569683 -0.18896113
000370 08 94 2f 3d 89 82 41 be 9d 7e 29 be 76 61 ab bc
       0.042865783 -0.18897451 -0.16552205 -0.020920496
000380 e2 30 07 be f8 1c 6e 3d 6a f0 33 be 63 c3 b9 bd
       -0.13202241 0.058133096 -0.1757218 -0.0907047
000390 5a f8 54 be 45 fb eb bd f0 6d 1f 3c 8c bf 98 3d
       -0.20797864 -0.11522535 0.009730801 0.0745841
0003a0 94 72 eb bd 39 70 3f bd c3 36 86 3a 93 49 62 be
       -0.114964634 -0.046737883 0.0010239709 -0.22098379
0003b0 b0 e9 86 bd 72 df 7c bc 65 4c 3a 3e 09 d2 74 bd
       -0.06587541 -0.015434133 0.18193205 -0.059770618
0003c0 f8 85 8c 3d 66 d5 5c 3c 9e 1c 80 bd 8c 3e a9 3c
       0.0686149 0.0134786125 -0.06255458 0.020659707
0003d0 87 f7 47 be f3 6a 21 3e 45 bb c6 be ab 9b 5a be
       -0.19528018 0.15763454 -0.3881475 -0.21348445
0003e0 4e 47 50 3e ba d7 c9 3d 7c a2 25 3e 7b ac 20 3e
       0.203397 0.098556 0.16175264 0.15690796
0003f0 43 ad aa be 40 09 b1 bd 39 d4 26 bd e7 97 13 3e
       -0.33335313 -0.086443424 -0.040729735 0.14413415

sequential.4.Gamma.bias f4 [15]
000000 1a 39 b5 bd c7 40 4b be cd 5d 82 3d d2 84 0a be
       -0.08848782 -0.1984893 0.06365547 -0.1352723
000010 8f 09 8d bd 0d 19 da bc cc 99 01 be 86 f4 cd bc
       -0.06886589 -0.026623273 -0.12656325 -0.025141012
000020 31 1b 57 3d dc fd 57 3d d8 72 a7 3d f7 1d 4a 3c
       0.052516166 0.052732334 0.081762016 0.012336246
000030 90 91 46 bd a8 ed 11 bd bd b1 5f be
       -0.048478663 -0.035627037 -0.21845146

sequential.4.Lambda.weight f4 [15, 20]
000000 74 e1 13 be 14 7e 67 be 44 c8 1d 3e b1 81 22 bd
       -0.14441472 -0.22606689 0.15408427 -0.039674465
000010 3f 18 04 bd b6 21 95 be 99 bf 81 be 87 22 3a 3e
       -0.032249685 -0.29127282 -0.2534149 0.18177234
000020 8f c0 74 3d 75 d8 2b 3d 95 81 07 be 26 39 ed bd
       0.05975395 0.041954476 -0.13233025 -0.11583166
000030 ab 6c 93 3d 9d 0e 14 3e aa 88 22 bd cf 8d b1 bd
       0.07198461 0.144587 -0.039681114 -0.08669626
000040 41 be 0c 3e 9d 9e 2d be 2f b2 18 be cc 10 53 be
       0.13744451 -0.16955037 -0.14911722 -0.20611876
000050 ee d2 3a 3e 45 cc 1a be 99 f2 10 3e 84 19 c0 3d
       0.18244526 -0.15116985 0.14155044 0.09379867
000060 df fe 1a be f7 b0 12 bc b6 59 86 3e 40 91 b1 3c
       -0.15136288 -0.0089533245 0.2624032 0.021675706
000070 92 3c 0f bc 8d 92 6e 3d 12 2d fa 3d 53 71 4a 3e
       -0.008742468 0.05824523 0.12215628 0.19769792
000080 68 4b 28 3e 33 bf ef bd 68 b1 48 be 85 9b 19 be
       0.16435015 -0.1170639 -0.19598925 -0.15000732
000090 25 c2 65 3d 42 ab c3 3d f0 70 27 bd e2 56 3f 3e
       0.056093354 0.09554149 -0.04087919 0.18685487
0000a0 cd b6 1e 3d f8 01 8e bc 1f e8 16 3e 49 f7 20 be
       0.03874855 -0.017334923 0.14736985 -0.15719332
0000b0 7f 8f 39 3f 4a e4 ef bc 1f 6e dc 3f c7 09 1b 3e
       0.7248458 -0.029283661 1.7221106 0.15140449
0000c0 48 7e f7 bc 69 30 71 be 08 3a 6a 3d 3c f7 80 3d
       -0.030211583 -0.23553623 0.05718425 0.06297156
0000d0 42 18 a6 be 39 42 4d be e5 59 6d 3e 7f 7f 6c bd
       -0.32440382 -0.20044793 0.23178823 -0.057738777
0000e0 87 66 8c 3e e3 78 f0 bb 93 31 00 be b7 ef 1d 3e
       0.27421972 -0.0073386296 -0.12518911 0.15423475
0000f0 91 be 4c bd 3f 07 83 be 5b b6 15 be 05 cc 5d be
       -0.049986426 -0.25591466 -0.14620344 -0.21659859
000100 a9 75 e1 bd c9 8f e8 3d b0 c1 08 3e 73 6a b5 bd
       -0.1100877 0.1135555 0.13355136 -0.08858194
000110 c2 75 5a be b9 38 33 3e 7c 02 2c be c9 bc e1 3d
       -0.21333984 0.17502107 -0.16797823 0.11022336
000120 92 f8 e5 bb f6 9f 59 3d 0d ff ec bc fb 53 0c 3e
       -0.0070181573 0.053131066 -0.028930211 0.13703911
000130 a1 fc b3 bd bd 64 db 3d d3 3b 20 3e d4 3e 1c be
       -0.087884195 0.10712574 0.15647821 -0.15258342
000140 49 c0 22 be b1 1a 5b bd 1f ef 30 be db bc a9 3d
       -0.15893663 -0.05349225 -0.17278717 0.082879744
000150 2f 6e 3e be 09 97 08 be ca df e6 be 65 8f 40 3e
       -0.18596719 -0.13338865 -0.45092613 0.188047
000160 fb d2 37 3e ee a2 87 3e 7c 98 45 be 37 cf e6 3d
       0.17951576 0.26491493 -0.1929645 0.11269992
000170 52 34 a3 bd 0a 85 44 be 99 f0 39 be fc cc c4 bd
       -0.07968964 -0.19191375 -0.18158187 -0.0960941
000180 4f 99 85 bc 64 c5 c9 3d 74 04 3d be 72 8b b6 3d
       -0.016308455 0.098521024 -0.1845873 0.08913316
000190 04 a5 cb bc 6b bf 78 3e 1b 74 1b be e2 b7 6e 3e
       -0.024858959 0.2429177 -0.1518101 0.23312333
0001a0 99 1f 0b be c3 2a 6c 3d 62 b6 1a 3e 65 09 66 3d
       -0.13586272 0.05765797 0.15108636 0.056161303
0001b0 1c 75 93 bd 91 72 16 be 65 85 11 3e 90 31 9f bd
       -0.07200071 -0.14692141 0.14211042 -0.07773125
0001c0 5a e3 43 3e 4d 1e c5 3c fa 67 36 3e b8 d8 01 3d
       0.19129696 0.0240623 0.17813101 0.03170082
0001d0 d8 e8 41 be 6c ae 56 3e 31 38 29 bd 17 a6 3b be
       -0.18936479 0.20964974 -0.041313354 -0.18325077
0001e0 de 2d 22 3d 0c 26 40 bc 07 c8 2c 3e 21 94 04 3f
       0.039594524 -0.011727821 0.1687318 0.51788527
0001f0 1e 7c 84 be b7 03 58 be 14 d9 8a bc a6 d5 fa bd
       -0.25875944 -0.21095167 -0.016949214 -0.122477815
000200 72 76 2b bb a2 90 81 3e 4e e4 6a bd 00 ab 25 3e
       -0.0026163128 0.2530566 -0.057346635 0.16178513
000210 07 f2 bb bd e7 c4 92 bd 41 6c 3f 3d 75 9a 94 3d
       -0.091770224 -0.071664624 0.0467341 0.07256023
000220 89 25 be be 88 c7 04 3e 94 01 b5 bd 2b 7a 2a be
       -0.37138012 0.1296674 -0.08838192 -0.16648166
000230 1b 96 6d 3d fe a2 ec bc be c8 36 be c7 95 38 3d
       0.05800448 -0.028886314 -0.17850015 0.045064714
000240 27 67 a1 3c b5 5f c9 3d 87 d4 91 bd db 7b a7 bd
       0.019702507 0.09832708 -0.071206145 -0.081779204
000250 89 1f 4e 3e a0 70 15 3e 76 44 44 3e c8 d8 38 3e
       0.20129217 0.14593744 0.19166741 0.18051445
000260 2f 5a 1c be 67 83 96 bd 07 0e 31 3d 59 f1 52 bc
       -0.15268777 -0.07349282 0.04322627 -0.012874925
000270 e0 60 16 3e 51 42 53 3e f0 a6 5d be 4c 09 68 be
       0.14685392 0.20630766 -0.21645713 -0.22659796
000280 b3 e8 9b 3d 08 7d b6 3e 42 6c 4a bd b7 bb 93 3d
       0.07612743 0.35642266 -0.04941965 0.07213538
000290 0f 84 30 bd fc 13 d7 3d f0 36 b4 3e e8 b4 70 bd
       -0.04309469 0.105018586 0.35198164 -0.058766276
0002a0 f7 31 eb bd a4 f6 b6 3c 6f ff f1 3d f4 ab c0 3d
       -0.114841394 0.022334404 0.11816298 0.094077975
0002b0 24 86 39 be e5 8a 4a be a8 b3 f2 bd 75 36 3f bd
       -0.18117577 -0.19779547 -0.11850673 -0.046682794
0002c0 6b 29 89 3d d7 dd bf 3d b3 e6 5d bd 79 5b 92 3e
       0.06697353 0.093684845 -0.05417509 0.28585413
0002d0 7a d3 46 bc 76 56 84 3e 6a 6f f0 3a 35 78 a3 3d
       -0.012135381 0.25847214 0.0018343751 0.07981912
0002e0 1e 1c 20 3b 49 98 72 bc 74 f5 36 bd 69 ee b5 3d
       0.0024430822 -0.014806815 -0.044667676 0.08883364
0002f0 c1 3a ff bc 29 1b b5 3e 18 4a e6 bd 3e a1 be 3c
       -0.031155946 0.35372284 -0.11244601 0.023270246
000300 5d 99 3f bd 29 e6 1d 3e 03 0e ba 3d 94 f5 4d bd
       -0.046777118 0.1541983 0.09084704 -0.05028303
000310 d8 9c 90 be 93 08 79 bd 13 90 e9 3d 55 ba 2b 3e
       -0.28244662 -0.060799193 0.11404433 0.16770299
000320 c3 25 1b be d4 40 65 bd 21 70 bc bc 61 3e 07 bc
       -0.15151124 -0.055970028 -0.023002686 -0.008254618
000330 ee 73 61 3d 9e 7b d1 bc 15 0f 22 3d f4 cf 59 be
       0.0550422 -0.02557164 0.039565165 -0.21270734
000340 a4 90 3f 3e 0b 9b 8c 3e 76 ea ef 3d fe 2c 1a bd
       0.1870752 0.27462038 0.11714642 -0.037640564
000350 d6 23 39 be 13 d7 33 3e 22 b3 87 3d 2e e5 31 be
       -0.18080077 0.17562513 0.06625964 -0.17372581
000360 c1 b4 be bd dd 2c 7b bd 49 01 e8 bd b8 ea 63 3e
       -0.0931182 -0.06132208 -0.1132837 0.22257507
000370 3c 20 8a be 6a d7 04 bf 91 18 55 be e9 f2 9b be
       -0.26977718 -0.51891196 -0.20810153 -0.30458763
000380 62 74 d1 3d 1a e3 c6 bd c6 34 8d 3d 46 43 9e bc
       0.102272764 -0.09711285 0.06894831 -0.019319188
000390 88 8f 0e be 24 49 28 3e 30 c8 d3 bd 8e 3a fe bd
       -0.1392194 0.16434151 -0.10340917 -0.12413512
0003a0 30 bc 8d be bd 24 38 3d e3 ed 9c be ba f3 4e 3e
       -0.27682638 0.04495691 -0.30650243 0.20210162
0003b0 f2 a1 06 be d9 61 f0 bd 0d 32 f1 3d da 24 3d 3e
       -0.13147715 -0.11737413 0.117771246 0.18471089
0003c0 3a 0e 85 bd 50 a5 32 be f0 0a 29 3e 6f 05 62 be
       -0.06496854 -0.17445874 0.16508079 -0.22072385
0003d0 0d 14 91 3e c0 63 bf ba 32 fa 9a 3e 69 b9 34 3d
       0.2833561 -0.0014601871 0.3026901 0.044122133
0003e0 90 41 9b 3d d0 7c 84 3e 8e 41 12 3e 76 92 d1 bd
       0.075808644 0.25876474 0.1428282 -0.10233013
0003f0 ad 26 76 bd 5f 28 19 3e 11 0b 0b be a2 4d be bd
       -0.060095478 0.14956807 -0.1357844 -0.09292151

sequential.4.Lambda.bias f4 [15]
000000 18 b9 2d 3e a9 c4 29 be 05 cc 4f be a8 23 54 be
       0.16965139 -0.16578926 -0.20292671 -0.20716727
000010 9f fd 0e 3d dc e9 05 3e 58 35 5c be 2b b7 11 be
       0.03490984 0.13077492 -0.21504724 -0.1423003
000020 5e 44 b9 3d a1 5d 57 be ed 94 22 be b2 e5 fc 3d
       0.09046243 -0.2103181 -0.15877123 0.123484984
000030 67 16 3f 3e f4 e4 fe 3d 71 83 3e be
       0.1866089 0.12446013 -0.18604828

sequential.6.Gamma.weight f4 [10, 15]
000000 43 b0 29 be b9 25 e8 bd 0b 13 26 be c6 83 4d 3d
       -0.16571145 -0.1133532 -0.16218202 0.050174497
000010 c5 03 31 bc 0d f9 26 be 93 55 56 bd b9 df c0 3d
       -0.010804121 -0.16305943 -0.052327704 0.09417672
000020 92 94 81 3d b9 0b e1 bd 24 70 85 be b3 3e 24 bd
       0.06327166 -0.10988564 -0.2606212 -0.040098857
000030 6b 7a 89 be 56 82 68 be ad 5e d3 3c 55 a8 d3 be
       -0.2685121 -0.22705969 0.02580198 -0.41339365
000040 21 7e 1f 3b 74 32 09 be 0d 6c 8d be a0 d6 de be
       0.0024336653 -0.13398153 -0.276215 -0.4352312
000050 94 83 a3 3c f2 bd 98 be 4c 47 49 3e 75 bd 38 be
       0.019960202 -0.29832417 0.19656104 -0.18041022
000060 61 a5 de bd eb fc 09 3e a9 52 a9 be f8 a5 27 be
       -0.10871387 0.13475387 -0.33070877 -0.16371906
000070 fa 82 70 be 5f 52 1f bf ec 95 4e 3e ab d3 3c be
       -0.23487464 -0.62235063 0.20174378 -0.1844012
000080 b9 aa 8c be 7c 63 90 3d 16 7a ea bd e2 15 78 be
       -0.27474 0.07050225 -0.11449067 -0.24227098
000090 16 23 86 3a d4 6b e1 3d 4b 88 c2 be 58 26 50 3e
       0.0010233845 0.11006895 -0.37994608 0.20327127
0000a0 90 98 58 3e 6e 93 31 be 3c 66 41 be a3 b6 8b 3c
       0.21151948 -0.17341396 -0.18886656 0.017054861
0000b0 57 9f ce be 63 ba 0a be d1 aa 56 3e f9 11 65 be
       -0.40355942 -0.13547663 0.20963599 -0.22370137
0000c0 98 dc 28 3e 8d 44 dc 3d 8d 4a 7d be 35 41 52 be
       0.164904 0.107552625 -0.2473547 -0.20532687
0000d0 be 55 32 bd d3 18 3e 3e 59 19 d2 bd 6f 0a 65 3e
       -0.0435388 0.18564157 -0.10258741 0.22367261
0000e0 59 68 d6 3d 3c 64 58 bd 47 2d 60 bc 47 c3 80 be
       0.104691215 -0.052829966 -0.01368267 -0.25148985
0000f0 75 78 f9 3c 35 2a 71 be bd 27 8b be 2a ad e0 3d
       0.030452946 -0.23551257 -0.27178755 0.109705284
000100 fb 2e c8 3c ee 1d b1 be d8 73 3e be 80 7b 19 be
       0.024436465 -0.34593147 -0.18598878 -0.14988518
000110 da d6 2d be 3d 71 fa 3d e6 58 f1 bd 23 52 a5 3e
       -0.1697649 0.1222863 -0.11784534 0.32289228
000120 61 37 97 be 31 71 31 3d 43 30 9c be cc 32 e8 bb
       -0.29534438 0.04332084 -0.3050557 -0.0070861336
000130 13 3d fc bd d7 dd d9 be 24 f6 65 be 63 18 96 bd
       -0.123163365 -0.42552063 -0.22457176 -0.0732887
000140 54 cb 9d 3d 30 cb 33 bf 82 a5 9e bd 6c 78 10 be
       0.077047974 -0.70231915 -0.07746412 -0.14108437
000150 85 7b 9e be 6e d3 02 ba 8f 3f 49 bc f1 02 64 3d
       -0.30953613 -0.0004990612 -0.01228322 0.055666868
000160 0f 86 d4 bc c3 e8 b5 be f4 14 23 be 89 76 4a bd
       -0.02594283 -0.35529146 -0.15925962 -0.04942945
000170 88 e3 85 be db 63 50 3e 8b 66 8e bd 8d be 6c 3d
       -0.26150155 0.20350592 -0.06953152 0.05779891
000180 31 b6 87 bd a3 85 c5 3d de 62 c0 be 09 b4 ae be
       -0.06626547 0.0964463 -0.3757543 -0.3412173
000190 9d d5 4c 3e f9 aa 72 be 34 d6 b7 bd a4 97 64 be
       0.20003362 -0.23698033 -0.08976403 -0.22323471
0001a0 fe 48 88 be 5d b9 3b bc 16 a8 1b be 77 42 8e be
       -0.2661819 -0.011457768 -0.15200838 -0.27785084
0001b0 96 7e e5 3d a5 b0 9d be cc db c1 bc 5f 87 af bd
       0.11205785 -0.30798832 -0.023664378 -0.08570742
0001c0 23 4b 0d 3d 56 0c 34 3e 4d b9 ad bb de b4 48 bd
       0.034495484 0.17582831 -0.0053016306 -0.049000613
0001d0 c5 5c d8 3c 0b c1 92 be d4 99 2a bd 36 a3 ae bd
       0.026411423 -0.28662905 -0.04165061 -0.08527224
0001e0 b0 df 2e be 9d 6e 1e 3e 9b 0c 04 be 01 49 ee 3c
       -0.17077518 0.15471883 -0.12895434 0.029087545
0001f0 bf 1b 69 be 2b 88 d4 be 4c e1 12 be a5 80 21 be
       -0.2276449 -0.41510138 -0.14343756 -0.1577173
000200 b7 88 af be 96 a9 88 be 23 e4 d5 bd cc df 4c 3e
       -0.34283993 -0.26691884 -0.10443904 0.20007247
000210 1a 99 3c be 8c 63 61 bd cc 57 8e be 89 33 fe bc
       -0.18417779 -0.055026576 -0.2780136 -0.031030433
000220 77 39 24 be b0 ef 7f be c5 36 5e be 66 f1 c1 bd
       -0.16037546 -0.24993777 -0.2170058 -0.09469871
000230 9d 63 01 bd 31 5f 27 be b9 7a 91 bc b8 e3 e4 be
       -0.03158914 -0.16344906 -0.017758714 -0.44704986
000240 ee ad 38 bf 6e f7 a3 3c 30 2b 95 bc 3b 96 7e be
       -0.72140396 0.020015445 -0.01820907 -0.24861996
000250 ad b3 ca 3d d5 77 8a 3e
       0.09897552 0.2704455

sequential.6.Gamma.bias f4 [10]
000000 cc 42 08 be a4 9e da 3a 26 9c 44 bc f2 ee 99 bd
       -0.13306731 0.0016679359 -0.012000119 -0.07516278
000010 95 71 a5 be 26 10 a4 3f 0b 07 d1 bd df 6a 0f bd
       -0.3231322 1.2817428 -0.102064215 -0.03501403
000020 95 43 0b be f5 fc 62 3e
       -0.13599999 0.22166808
